…
    # Create, compile and summarize a neural network with the parameterization defined above
    model1 <- neural_net()
    summary(model1)
    
    
    
    Model: "model"
    ________________________________________________________________________________
     Layer (type)             Output Shape      Param #  Connected to               
    ================================================================================
     input_2 (InputLayer)     [(None, 1)]       0        []                         
     input_3 (InputLayer)     [(None, 1)]       0        []                         
     embedding (Embedding)    (None, 1, 2)      22       ['input_2[0][0]']          
     embedding_1 (Embedding)  (None, 1, 2)      44       ['input_3[0][0]']          
     input_1 (InputLayer)     [(None, 7)]       0        []                         
     flatten (Flatten)        (None, 2)         0        ['embedding[0][0]']        
     flatten_1 (Flatten)      (None, 2)         0        ['embedding_1[0][0]']      
     concatenate (Concatenate  (None, 11)       0        ['input_1[0][0]',          
     )                                                    'flatten[0][0]',          
                                                          'flatten_1[0][0]']        
     dense_2 (Dense)          (None, 20)        240      ['concatenate[0][0]']      
     dense_1 (Dense)          (None, 15)        315      ['dense_2[0][0]']          
     dense (Dense)            (None, 10)        160      ['dense_1[0][0]']          
     Network (Dense)          (None, 1)         11       ['dense[0][0]']            
     input_4 (InputLayer)     [(None, 1)]       0        []                         
     multiply (Multiply)      (None, 1)         0        ['Network[0][0]',          
                                                          'input_4[0][0]']          
    ================================================================================
    Total params: 792
    Trainable params: 792
    Non-trainable params: 0
    ________________________________________________________________________________
    

InÂ [72]:

    
    
    set.seed(42) # set seed again
…
    # Create, compile and summarize a neural network with the parameterization defined above
    model <- neural_net()
    summary(model)
    
    
    
    Model: "model"
    ________________________________________________________________________________
     Layer (type)             Output Shape      Param #  Connected to               
    ================================================================================
     input_2 (InputLayer)     [(None, 1)]       0        []                         
     input_3 (InputLayer)     [(None, 1)]       0        []                         
     embedding (Embedding)    (None, 1, 2)      22       ['input_2[0][0]']          
     embedding_1 (Embedding)  (None, 1, 2)      44       ['input_3[0][0]']          
     input_1 (InputLayer)     [(None, 6)]       0        []                         
     flatten (Flatten)        (None, 2)         0        ['embedding[0][0]']        
     flatten_1 (Flatten)      (None, 2)         0        ['embedding_1[0][0]']      
     concatenate (Concatenate  (None, 10)       0        ['input_1[0][0]',          
     )                                                    'flatten[0][0]',          
                                                          'flatten_1[0][0]']        
     dense_2 (Dense)          (None, 20)        220      ['concatenate[0][0]']      
     dense_1 (Dense)          (None, 15)        315      ['dense_2[0][0]']          
     dense (Dense)            (None, 10)        160      ['dense_1[0][0]']          
     Network (Dense)          (None, 1)         11       ['dense[0][0]']            
     input_4 (InputLayer)     [(None, 1)]       0        []                         
     multiply (Multiply)      (None, 1)         0        ['Network[0][0]',          
                                                          'input_4[0][0]']          
    ================================================================================
    Total params: 772
    Trainable params: 772
    Non-trainable params: 0
    ________________________________________________________________________________
    

The model is now 20 weights smaller.
…
