…
                      'accuracy'
                  ]
    )
    history = model_1.fit(X_train, y_train, validation_data=(X_test, y_test), epochs=epochs, 
                          batch_size=2048, 
    #                       class_weight=class_weights,
                          callbacks=[callbacks_list]
                         )
    
    
    
    Model: "sequential"
    _________________________________________________________________
    Layer (type)                 Output Shape              Param #   
    =================================================================
    dense (Dense)                (None, 2048)              110592    
    _________________________________________________________________
    dense_1 (Dense)              (None, 1024)              2098176   
    _________________________________________________________________
    dropout (Dropout)            (None, 1024)              0         
    _________________________________________________________________
    dense_2 (Dense)              (None, 512)               524800    
    _________________________________________________________________
    dropout_1 (Dropout)          (None, 512)               0         
    _________________________________________________________________
    dense_3 (Dense)              (None, 128)               65664     
    _________________________________________________________________
    dropout_2 (Dropout)          (None, 128)               0         
    _________________________________________________________________
    dense_4 (Dense)              (None, 1)                 129       
    =================================================================
    Total params: 2,799,361
    Trainable params: 2,799,361
    Non-trainable params: 0
    _________________________________________________________________
    None
    Epoch 1/40
    20/20 [==============================] - 3s 82ms/step - loss: 0.6236 - accuracy: 0.7430 - val_loss: 0.5541 - val_accuracy: 0.7571
    
    Epoch 00001: val_loss improved from inf to 0.55411, saving model to ./best_model.hdf5
…
